pretrained_models/Denoised/gen_model_epoch_60.pth (torch, 913580 bytes, 83 tensors)

gen.gen.conv_in.0.weight f4 [32, 3, 3, 3]
00000000: baa1 24ba 8f41 063a 79c9 a8bb c88f 1abb
00000010: fe47 2abb b530 c4bb 3d2f cdbb 76c2 fabb
00000020: 46d8 42bc 26af 36ba 2d04 44b8 ebc7 01bb
00000030: 319a 1abb 1553 2abb 08e0 cabb c210 e3bb
00000040: e5e0 fabb e204 3bbc 0dee 98b9 d934 063a
00000050: 9e9f b1ba 314e 2ebb 2a60 27bb 5f6e cebb
00000060: 552f cdbb dff1 fbbb e34d 33bc 25ea 523c
00000070: b5b4 1d3d 333a cf3d c28f 09bc 9959 193d
00000080: 7fc0 1a3d 8bd5 d2bd 0a28 f1bc d8a6 40bd
00000090: 4681 f0bb da47 ac3d 3411 753d 086a ff3b
000000a0: aba0 b83c 5c1b 5f3d 4fa1 03bd 9f50 26bd
000000b0: 0a87 c4bd 2679 1b3c 38a5 313c 7057 013e
000000c0: 4605 fabc 0628 313d 65f0 6e3d cdf1 a9bd
000000d0: 531c 9dbd 9da1 30bd 36b9 15ba b69d b13d
000000e0: 2686 053e 2d1f 2cbc 7a2a cf3c f66c 703d
000000f0: 2a49 c3bd 3fcb 22bd 7ceb 4abd 856e 2c3c
00000100: 3217 dc3d 8452 c53d 7dcc e9bc 9e49 0a3c
00000110: 7d2c 983d 78f5 eebd bec7 b0bd 6fa5 3cbd
00000120: c15a b8bc 51e2 913d d236 da3d 5407 9eba
00000130: 7ddc 0cbb cfc0 733d 0a91 babd 30d0 84bd
00000140: d1fd 27bd 8b75 d23c 7433 043e 81a4 e63d
00000150: beaf 503d 1497 993d 71ad fb3c 2499 a7bd
00000160: 1235 2ebd af81 eebd bfcd 833c 6d24 ae3d
00000170: 2079 b63d 7a9c 293d c762 893d c902 343d
00000180: d372 97bd 8f5d 78bd e2f8 d3bd 3d43 9d3a
00000190: 10ee cb3d 6748 133e 60fc c73c 74d4 6a3d
000001a0: 3ced 093d b0b2 9ebd 4371 94bd 0bda e8bd
000001b0: e95d a7bc 751b 903c 8c9b 3b39 7d20 33bc
000001c0: 2c3b aabc 3c43 593a 58ad 1d3c cd11 5639
000001d0: a231 483c 9306 0c3c 2cde 13bd 9e4a 59bc
000001e0: 03a5 fabb aea9 26bd 70c1 6cbc 6156 3e3b
000001f0: d314 913b d9fb 92bc f134 29bd 30a3 9ebc
00000200: fb0a 9fbc f32a febb 49d0 cebc 30ff 2ebb
00000210: 32a2 63bc 4d1b dabc 5c6a 073c 5d8e a6bb
00000220: f75c 673c 0cb6 a73c 46d5 e0bc a89a 3d3c
00000230: 2a66 0abd e1c0 1abd a3d8 2fbb 7512 79bc
00000240: cf14 81bc dbe6 d1bc ae47 85bb 1f95 abbb
00000250: 5596 09ba 39f5 28bd 26e6 bebc 989b cdbb
00000260: 740b 973c 5b5c 663c 8592 25bc 9c2c 8bbc
00000270: de8d b13b dcda 60bb 0a73 b4bc 5bc2 e23c
00000280: 7783 1e3c e067 3e3c 2e06 0e3d 01c1 b83d
00000290: 5f4b 013d 74db 5d3d a1d6 c43d aebe 5a3d
000002a0: 20c5 b13d 41df d03d d18c 5d3d 3cd5 d13c
000002b0: da6e 1d3d 4d49 543d 1447 a23d 333c b63d
000002c0: b678 a73d ca3a db3c 0fab 653d 04eb 6c3d
000002d0: 78f4 823d 15c1 433d c750 df3c 533d 833d
000002e0: 5ac6 113e 770f 8c3c b010 833d 47d9 833d
000002f0: b68b 163d f3b4 28bd 01e4 98bc 3b13 d7bc
00000300: 0003 82bb a3da 1cbd 6188 05bd 657a 29bc
00000310: a8dc 213d 8612 1a3d 8bac 46bd 7622 35bd
00000320: 864d 0bbd 5b5f 0e3d dbda 773c 9897 283c
00000330: de8c 583d fbe8 083d a6e2 4c3d c603 60bd
00000340: ddd4 26bd 2f1b cdbc 10bf d33c 7c80 9c3b
00000350: 2f9e cfbc 72f7 613d 8c6b 473d 0a87 093d
00000360: 52bd 403c a60d 03bd 4fb1 cdbc 4c77 5d3d
00000370: 0eb7 3a3d 82c9 443c 94d3 cc3d 6100 9d3d
00000380: 89b8 943c 1edd 983c ce54 61bd 97c5 93bd
00000390: b7ca a13d 2f40 5bbc 5534 4c3a 3d14 a83d
000003a0: 4f14 203d f11b 823d 195c c93c c79c 1cbd
000003b0: ce18 38bd d416 7d3d e1c2 123d 40d2 263d
000003c0: 5dfa 693d aba3 943d 3ef5 073d 9537 9d3c
000003d0: 9154 30bd e65f 24bd c44a 95bb 4c41 e4bc
000003e0: efe8 48bd c61e f3ba 3f45 d6bc fdc7 77bc
000003f0: 1ca2 a8bc c37a b3bc 5792 64bc 26cf 973c
-0.00062802027 0.00051214633 -0.0051509705 -0.0023584235 -0.0025982852 -0.0059872516 -0.0062617348 -0.007652576
-0.011892384 -0.0006968848 -4.673393e-05 -0.0019802998 -0.002359044 -0.0025989462 -0.0061912574 -0.006929488
-0.007656204 -0.011414738 -0.0002916906 0.0005119569 -0.0013551598 -0.0026596899 -0.0025539496 -0.0062997784
-0.006261746 -0.0076887454 -0.010943863 0.012873207 0.038502414 0.101185225 -0.008396091 0.037438963
0.037781235 -0.10294636 -0.029438037 -0.047034115 -0.0073396293 0.08412142 0.05983086 0.0077946223
0.02253755 0.05446945 -0.032136258 -0.04060423 -0.09596069 0.009489333 0.010842614 0.12631011
-0.030520093 0.04325106 0.058334727 -0.08298073 -0.07671418 -0.043122876 -0.00057114975 0.08672659
0.13039455 -0.01050548 0.02528881 0.058697663 -0.09535439 -0.03974461 -0.04954098 0.010524397
0.10746612 0.09634879 -0.02853989 0.008440403 0.074303605 -0.11667913 -0.08631848 -0.046056207
-0.022504212 0.071232446 0.106549874 -0.0012056627 -0.0021493726 0.05951005 -0.09109695 -0.06485021
-0.041013543 0.025690814 0.12910253 0.112618454 0.05094885 0.07499519 0.030722352 -0.08183506
-0.04253108 -0.11645829 0.016089318 0.085030414 0.089098215 0.041408993 0.067082934 0.04394797
-0.07394948 -0.0606361 -0.10350205 0.0011998188 0.09957516 0.14383088 0.024412334 0.057331517
0.03367351 -0.07748926 -0.072481655 -0.113697134 -0.020430522 0.017591218 0.00017891655 -0.010933039
-0.020780168 0.0008287912 0.009623848 0.00020415262 0.012218865 0.008546489 -0.03610055 -0.013262419
-0.0076490655 -0.040689163 -0.014450416 0.0029043185 0.0044275313 -0.017942356 -0.041310254 -0.019364923
-0.019414416 -0.007756585 -0.025245802 -0.0026702397 -0.013893651 -0.026624346 0.008265104 -0.005082889
0.014121286 0.020472549 -0.027445447 0.011572517 -0.033788837 -0.0377816 -0.0026832006 -0.015202154
-0.015756993 -0.025622776 -0.004067383 -0.0052362825 -0.00052485365 -0.041249488 -0.023303103 -0.0062746517
0.018438078 0.014060105 -0.010105734 -0.016989045 0.005418523 -0.0034310138 -0.022027511 0.027680567
0.009674898 0.011621445 0.034673862 0.090211876 0.03156602 0.054164365 0.0961125 0.053404503
0.08680177 0.10198832 0.05408937 0.025614373 0.038435794 0.051827718 0.07923713 0.08898201
0.08177321 0.026761431 0.056071337 0.057841316 0.06394285 0.04779156 0.027260197 0.06408181
0.14235821 0.017097218 0.06399667 0.06437927 0.036754332 -0.04118819 -0.018663408 -0.026254287
-0.003967643 -0.038294446 -0.032600764 -0.010344123 0.039517075 0.03761532 -0.048504394 -0.044222318
-0.03400948 0.034758907 0.015127863 0.010290049 0.052868716 0.033425312 0.050020836 -0.0546911
-0.040730346 -0.025037376 0.025847942 0.0047760587 -0.025343983 0.055167623 0.04868655 0.03357605
0.0117638875 -0.031995438 -0.025108961 0.05406885 0.04558473 0.012010934 0.10001293 0.07666088
0.0181544 0.018660124 -0.055012517 -0.07215422 0.07899993 -0.013382002 0.00077897805 0.08206985
0.039081868 0.06352986 0.024580048 -0.038235452 -0.04494553 0.06178935 0.035830382 0.040727854
0.05712353 0.0725778 0.033192866 0.019191543 -0.0430494 -0.04013052 -0.004556032 -0.027863167
-0.049050268 -0.00185486 -0.026156066 -0.0151233645 -0.020585112 -0.021909123 -0.013950906 0.018531393

gen.gen.SAM1.irnn1.left_weight.weight f4 [32, 1, 1, 1]
00000000: 9bec 5b3d c408 22bd c257 123e bb31 0080
00000010: a5f2 1d3e d518 9ebd 9a9e 8b39 04fa c9b6
00000020: 6c6b 903d 2d21 593e c1ae 653d 57be 213e
00000030: 58b2 0080 2531 f43d de89 9bbe dd73 0080
00000040: a866 463e 21b7 483e 8599 f33e b88f a23d
00000050: 723a 0180 e6fc dc3c 02e3 c13d 4a6d 273e
00000060: 4aea 9c3d 7855 3abd 0ceb 943d 5c76 15be
00000070: af1c 103e 4e08 043e b613 0080 bdc9 083f
0.05369244 -0.03955914 0.1429129 -1.784e-41 0.15424593 -0.0771958 0.00026630313 -6.0193724e-06
0.07051739 0.21204062 0.05607486 0.15795265 -6.3978e-41 0.11923436 -0.30378622 -4.1564e-41
0.19375098 0.19601108 0.47578064 0.079375684 -1.12802e-40 0.02697606 0.094671264 0.16350284
0.076618746 -0.045491666 0.07271394 -0.14595932 0.14073442 0.12893793 -7.071e-42 0.5343283

gen.gen.SAM1.irnn1.left_weight.bias f4 [32]
00000000: ddce 693e 3f4e 103e be88 bf3e 5e90 0080
00000010: 40c9 b13e 47bb 7c3f 9c49 c7ba ccba 56b8
00000020: 28af 79be dfff 603f b6c0 613f 6f05 033e
00000030: 2bac 0080 04cd 643d a89f 2a3f d283 0080
00000040: 4425 773f 006c 193f 78db 633f 91a5 553f
00000050: 6590 0000 7f6c ca3e e7e5 abbd d612 083f
00000060: 05f3 86bb b119 3b3e ccbe c8be a1df 5a3e
00000070: 4a9e cd3e 4875 b33e 799f 0000 30c7 303f
0.22832818 0.14092349 0.37409014 -5.1789e-41 0.34723854 0.9872326 -0.0015204432 -5.1195544e-05
-0.24383223 0.8789043 0.8818468 0.12795042 -6.1762e-41 0.05585958 0.66649866 -4.7288e-41
0.9654124 0.5993042 0.8900676 0.8345576 5.1799e-41 0.395359 -0.0839346 0.5315374
-0.0041183257 0.18271519 -0.39208066 0.2137437 0.40159827 0.35050416 5.7208e-41 0.69053936

gen.gen.SAM1.irnn1.right_weight.weight f4 [32, 1, 1, 1]
00000000: f8db bf3d ab01 d33d 4e32 793e af58 0080
00000010: 7d90 7e3e 1adc 393d 27ee 473d 2841 f93d
00000020: 954d c2be cb8d 423e 2bc8 0000 443f 903e
00000030: 3578 2d3d 718f 2e3e 6cc7 1d3e 2ebc 9eb9
00000040: 0373 443e e07e 1abc ef1d 853e b6bb ddbd
00000050: bf70 373d fd5c 06be 8e34 3e3e 3c00 243e
00000060: 0042 863e def4 323e 3f98 cb3d 39f7 ef3d
00000070: 1883 373e 2b83 883e f33b 0080 2cc3 b13e
0.093681276 0.103030525 0.24335596 -3.1814e-41 0.24859805 0.04537592 0.048811104 0.12170631
-0.37949815 0.18999402 7.1807e-41 0.28173268 0.042350966 0.17046906 0.15408105 -0.00030276313
0.19184498 -0.009429663 0.259994 -0.10826819 0.044785257 -0.1312141 0.18574736 0.16015714
0.2622223 0.17476222 0.09941148 0.11717076 0.17921102 0.26662573 -2.1506e-41 0.34719217

gen.gen.SAM1.irnn1.right_weight.bias f4 [32]
00000000: 7b89 7f3f 1c7f 3c3d b159 063e 5a95 0080
00000010: b30a 4cbd 15e8 20be b147 d23e ab5f 873d
00000020: eb9e c3be db99 f33d afaf 0080 e819 3f3f
00000030: be78 4c3f bc30 323f d4c3 cbbd b348 143f
00000040: 3272 f8bc 76d3 f5bd 7319 803d a4dd 8d3e
00000050: 56db f13e ed24 943e cc82 2e3c fa56 a1bd
00000060: 29c7 5e3d 41ae 793c 1d02 00bf d8b5 223f
00000070: 4ff7 0d3f b341 733f 079a 0080 8182 d03d
0.99819154 0.04601966 0.13120152 -5.3577e-41 -0.04981489 -0.15713532 0.4107032 0.06610044
-0.38207182 0.1189458 -6.3023e-41 0.74648905 0.7987174 0.6960561 -0.099494606 0.5792343
-0.03032789 -0.120032236 0.06254854 0.2770816 0.47237653 0.28934422 0.010651302 -0.078779176
0.054389153 0.015239299 -0.50003225 0.6355872 0.5545549 0.95022124 -5.5255e-41 0.10181142

gen.gen.SAM1.irnn1.up_weight.weight f4 [32, 1, 1, 1]
00000000: f048 163f b3b3 e23d 21d4 213d 2b5b 0000
00000010: b9dc 283e 4598 363d c569 003e 131f a4bc
00000020: 688a 22be 8455 673e 288a 0080 2529 4c3e
00000030: 5aa0 0080 97e5 153e d97a 523e 3a8b 0080
00000040: 9abe 003e c184 e33d 12ae 0d3e f920 132a
00000050: 01c1 0000 5839 c63d 2cdd 723d 50b5 9b3d
00000060: 34c7 0a3e f2b1 6abe fbef 2f3d f25d 0c3e
00000070: 5faa 643d 2bb0 703e e444 0000 9d0c cb3d
0.58705044 0.11069431 0.039508943 3.2705e-41 0.16490449 0.04457881 0.12540348 -0.020034349
-0.1587311 0.22591215 -4.9561e-41 0.1993757 -5.7523e-41 0.14638363 0.20554675 -4.9945e-41
0.12572709 0.11109305 0.13835934 1.3067662e-13 6.9237e-41 0.09678906 0.059292957 0.07602942
0.13552552 -0.22919443 0.042953473 0.13707712 0.05582654 0.23504703 2.4713e-41 0.09914515

gen.gen.SAM1.irnn1.up_weight.bias f4 [32]
00000000: 2f33 163e 6966 bd3d 8ff3 34bd b494 0080
00000010: 73a9 113f eb6e 21be 11a9 453f 1d84 a13e
00000020: aa0a a3be fc65 d2bb 0f9c 0080 62d2 7c3d
00000030: 9cb1 0080 fe40 ad3d 82dc 79bc bb87 0080
00000040: 4895 37bd c3bf 373f 32e9 153f 47fd 21ba
00000050: 96a4 0000 ebbb 263f 5a93 633f 8a63 5dbd
00000060: e500 bebc adcb f03d e62b 22be f746 5f3f
00000070: 5281 95bc b6a8 5f3f d43d 0000 b608 a63d
0.14667962 0.09248049 -0.044177588 -5.3345e-41 0.56899184 -0.15764968 0.772111 0.31546107
-0.31844074 -0.006420849 -5.5983e-41 0.061724074 -6.3714e-41 0.08459662 -0.015250327 -4.8691e-41
-0.0448201 0.7177698 0.5855895 -0.0006179404 5.9042e-41 0.6513049 0.88896716 -0.054050006
-0.023193786 0.11757598 -0.15837058 0.8721766 -0.018250141 0.8736681 2.218e-41 0.0810713

gen.gen.SAM1.irnn1.down_weight.weight f4 [32, 1, 1, 1]
00000000: ba6a eb3e bf9c dd3d 6806 3f3e b5aa 0100
00000010: 3477 71bd b84c 5fbc 6d00 8dbe c7fe 86be
00000020: 1029 063d db5b 273e c18e 0080 ddf5 533e
00000030: dcfe 3abd 43e2 a93d f41e 50be cae3 0180
00000040: f0cf 073e c91a 023e 11c8 dc3d c961 d5be
00000050: 1f45 2b3c 1764 a83d 98c6 073e 0c4a 323e
00000060: b6d8 bf3d 082a 60bd e59e 1b3d 155c 0c3e
00000070: b435 c7bd 1b08 6dbd 702c 0080 3e84 5e3e
0.45979863 0.108209126 0.18654788 1.53074e-40 -0.05895157 -0.013629131 -0.27539387 -0.26366255
0.032754004 0.16343634 -5.121e-41 0.20699258 -0.04565321 0.08295109 -0.20324308 -1.73551e-40
0.13262916 0.1270553 0.10780347 -0.41676167 0.0104534915 0.082222156 0.13259351 0.17411059
0.09367506 -0.054727584 0.03799333 0.13707002 -0.0972704 -0.057869058 -1.5941e-41 0.21730134

gen.gen.SAM1.irnn1.down_weight.bias f4 [32]
00000000: d46d 083e ee61 b73d ad0d e23e 8197 0080
00000010: 952a 12be f7da 3f3f 73c3 6b3e 25c5 4c3e
00000020: 09fd 72be 8c6a e23e 1498 0080 7826 133e
00000030: e352 f33e 0a4f b23d 8fab 053e 35a1 0080
00000040: 4ea3 f93e 0f18 d43e 824c f43d cfea b03e
00000050: 3eaf ea3e a386 2d3f abc0 243d 86c1 023f
00000060: c52f c63e 40d8 8a3c 2edb 8abd 8de5 823f
00000070: 6fcf 4e3e 2df8 013e ce94 0080 bd6e 023f
0.13323146 0.089542255 0.4415106 -5.435e-41 -0.14274056 0.7494349 0.23023777 0.1999708
-0.23729338 0.44221914 -5.4555e-41 0.14370143 0.47524175 0.08706482 0.13053726 -5.783e-41
0.48757404 0.41424605 0.11928655 0.34554145 0.45836824 0.67783564 0.040222805 0.51076543
0.3870832 0.01694882 -0.067800865 1.0226303 0.20196317 0.12692328 -5.3381e-41 0.50950223

gen.gen.SAM1.irnn2.left_weight.weight f4 [32, 1, 1, 1]
00000000: 6d4b ab3c 2c3a 463c 659b 24bd b669 ffbc
00000010: b217 423d e019 423d 9364 8c3d dc52 fe3d
00000020: 9faa fa3d 36c2 f23c 9840 0000 3aed 783d
00000030: 0412 c83c 0bfc 623d e423 73bc 817b 1d3d
00000040: d25c 443e a964 0000 bd18 0280 b7c5 2f3e
00000050: f0fd 9b3e 5a71 6d3d 59bd 0dbc 2127 8a3c
00000060: 64cb cd3d 26dd 0c3d 2c7d 0080 b6c9 033e
00000070: 4ae7 083d 0b98 7bbb b267 bd3b b054 993e
0.02090999 0.01209883 -0.04018726 -0.031178337 0.04738588 0.047387958 0.068551205 0.12418148
0.12239575 0.029633623 2.3172e-41 0.060773112 0.024422653 0.05541615 -0.0148401 0.03844786
0.19176033 3.611e-41 -1.92545e-40 0.17165266 0.30467176 0.05796943 -0.008651101 0.016864361
0.10048559 0.03439059 -4.4903e-41 0.12869915 0.0334237 -0.0038390185 0.0057801837 0.29947424

gen.gen.SAM1.irnn2.left_weight.bias f4 [32]
00000000: 483a 45be 2bed 293f 732b da3c 9d7a 2fbf
00000010: 6ee1 26bf 2a1f 0e3f f92d 483f 345c 393f
00000020: 5e35 013e fe20 253f 9fa4 0080 a1bc 1ebf
00000030: 15d5 31bf 9abc 3e3f 80cf 733e 430f d0be
00000040: 8961 ab3e adab 0080 d097 0080 a27c af3e
00000050: abbc 233e c572 0dbf 34d4 18bf 119e f73e
00000060: 9c97 323f 87a6 4b3e 95a5 0080 2b8e d13e
00000070: e7ca 193e 952c 54bf 6589 fabe b96f 4e3e
-0.19260514 0.66377515 0.026632046 -0.6854647 -0.6518773 0.555163 0.7819515 0.72406316
0.12618014 0.6450347 -5.9055e-41 -0.62006575 -0.6946576 0.74506533 0.23809624 -0.40636644
0.3347285 -6.1586e-41 -5.446e-41 0.34274775 0.1598994 -0.5525325 -0.59698796 0.48362783
0.6976259 0.19887744 -5.94e-41 0.40928778 0.15018807 -0.82880527 -0.4893295 0.20159806

gen.gen.SAM1.irnn2.right_weight.weight f4 [32, 1, 1, 1]
00000000: 73fe c93d 98ce 12bd 9c7f a53d 7427 933d
00000010: d59a 84bd cefe d53d e508 f33c 04d9 283e
00000020: 80ed cb3d 2990 3cbd 6739 0080 d4a4 85bd
00000030: 7738 3bbd 6eb8 313c 8580 483e b08c e93c
00000040: 6f5f 533e e679 0080 790e 0080 d8ad 933d
00000050: ce8f a43e 72bc 4d3d e582 1ebe 8622 093c
00000060: 6c8a 483d 4b4f eb3d 5e5c 0180 9748 803d
00000070: 495a 853c 0838 edbc 9026 1a3e 3f99 fc3d
0.098629855 -0.035841554 0.0808098 0.071852595 -0.06474844 0.10448991 0.029667327 0.16489035
0.09957409 -0.04603592 -2.0592e-41 -0.06525579 -0.045708146 0.010847194 0.19580276 0.028509468
0.20641874 -4.3729e-41 -5.192e-42 0.072108924 0.32140964 0.050228544 -0.1547962 0.008370047
0.048960134 0.11489733 -1.2497e-40 0.062638454 0.016278403 -0.028957382 0.15053773 0.12333917

gen.gen.SAM1.irnn2.right_weight.bias f4 [32]
00000000: 8f47 683f b0e0 5e3e 6367 503f ab8b 60bf
00000010: a537 d0bd 8aae c93d 68d2 47bf 1d4a e83e
00000020: bfed 92be f4e4 d5be cdb1 0080 69b2 d03e
00000030: 4ad9 0dbf b77f 5cbe 8e0b da3e 5f30 323f
00000040: 0827 8d3e ec94 0080 41a3 0080 23dd 0c3f
00000050: 3323 253e 82f3 4d3f b9c4 913e d4b5 4d3f
00000060: e0db 30bf d144 463f 8e9b 0080 416f 6cbe
00000070: 7f88 10bd 3efa 40be 8819 013e c10b 503f
0.9073419 0.21765399 0.81407756 -0.87713116 -0.10166863 0.09847744 -0.7805543 0.45369044
-0.2869701 -0.4177624 -6.3783e-41 0.40761116 -0.5540968 -0.21533094 0.4258694 0.6960506
0.2756884 -5.3423e-41 -5.8564e-41 0.5502493 0.16126709 0.8044969 0.284704 0.8035557
-0.690855 0.77448756 -5.5803e-41 -0.23089315 -0.035286423 -0.1884546 0.12607396 0.81267935

gen.gen.SAM1.irnn2.up_weight.weight f4 [32, 1, 1, 1]
00000000: 27bd e7bd bf48 fcbc bf57 32be ef0d 85bd
00000010: 6107 f9bc 68a3 3abd e731 f8bb cf6a 033d
00000020: b43e 70ba 4210 b5bd 99dd 0080 9a6f 02bd
00000030: 3112 18bd 522f c6bc 9fb1 0f3d 4bb2 27be
00000040: 1b27 d13c 2362 0000 f47b 0000 a5d2 d5bd
00000050: 5731 1b3c 2883 b23d fc52 03be 8e66 3a3c
00000060: d18b b6bc 191b 833d 7844 0080 5059 d93b
00000070: 6aba 3f3d 29e9 6dbc 0224 82be 779c 683e
-0.11315375 -0.030796407 -0.17416285 -0.06496798 -0.030399026 -0.045565993 -0.007574308 0.032084282
-0.0009164617 -0.088409916 -7.9494e-41 -0.031844713 -0.037126724 -0.024192486 0.035081502 -0.16376607
0.025531342 3.5205e-41 4.4466e-41 -0.10440568 0.009472213 0.08716422 -0.12824625 0.01137699
-0.022283467 0.06401653 -2.4562e-41 0.0066329613 0.046808638 -0.014520922 -0.25418097 0.22715937

gen.gen.SAM1.irnn2.up_weight.bias f4 [32]
00000000: 82f1 0b3f 2528 cfbe 6d0d 6a3e f120 1abf
00000010: c440 46be ea78 473f b794 c2be f048 2cbd
00000020: 7cb5 6b3f 1dee 973e c8a4 0080 5965 10bf
00000030: cd60 93be fddd 8cbe 9f33 c63e a4a7 81be
00000040: 702a 3e3f 0aaa 0080 b1a5 0080 0777 a83e
00000050: ceaa 3d3f be4d 4e3f 55de fe3d 7332 913c
00000060: 0ad3 aebe 8695 f43e 429e 0080 b745 71be
00000070: ba3e 29bf aeca 5ebf 7148 fa3e 30ea fa3d
0.54665387 -0.40460315 0.22856684 -0.60206515 -0.19360644 0.77918875 -0.38004085 -0.042061746
0.920738 0.29673854 -5.9112e-41 -0.56404644 -0.2878479 -0.27513114 0.3871126 -0.25323212
0.74283504 -6.0999e-41 -5.9439e-41 0.3290331 0.7408875 0.80587375 0.1244475 0.017724251
-0.34145385 0.47770327 -5.6772e-41 -0.2356175 -0.6611134 -0.87028015 0.48883393 0.12251699

gen.gen.SAM1.irnn2.down_weight.weight f4 [32, 1, 1, 1]
00000000: 33fa 853c 2d82 4a3c 189b 16bd fad2 25bd
00000010: 6b1e 1fbd 4cfb 833d 5e91 7dbc a1d4 793d
00000020: a4ad 323e b6c2 a7bc 0c13 0280 f072 3ebe
00000030: 91de a7bc 9974 453c e1ca 7c3d 8324 42be
00000040: cd47 013d bb0f 0080 2b90 0000 2097 493c
00000050: 677c 333e 4be3 ee3c 2ebf c53a 91a0 08be
00000060: 6dc4 8dbd 355c b63c e988 0000 3719 adbe
00000070: f8fb 9cbd d220 77bc 2d89 8e3d 8973 bdbd
0.016354656 0.012360138 -0.036769003 -0.040484406 -0.03884737 0.064444155 -0.015476553 0.060993794
0.17449051 -0.020478588 -1.90504e-40 -0.18598533 -0.02049187 0.012051725 0.061716918 -0.1895924
0.031562615 -5.643e-42 5.1718e-41 0.012304097 0.17527924 0.029161116 0.0015086883 -0.13342501
-0.06922231 0.022260765 4.9114e-41 -0.338083 -0.07665247 -0.015083509 0.06959758 -0.09250552

gen.gen.SAM1.irnn2.down_weight.bias f4 [32]
00000000: 93d2 9abe e09c 60bf 366c 8ebe 4cdd be3e
00000010: bdc9 4d3f 902f 1cbf 4318 d93e 68f1 0dbf
00000020: 6dcc 18bf f2ae 15bf 00ae 0080 43ea 553e
00000030: 6af7 07bf e8a4 353f 80f2 473f f4fc d03d
00000040: 4ffd 423f 9d98 0080 779a 0080 21c0 9bbd
00000050: fa83 fd3d 934b 09bf bb68 23bf fde0 e23e
00000060: 9257 743e 1f15 713f 7497 0080 b601 a53e
00000070: 0d19 d3be 1a9b e53e ab39 05bd 032c 293f
-0.3023878 -0.8773937 -0.27816933 0.3727821 0.80385953 -0.61010075 0.42401323 -0.5544648
-0.5968693 -0.5847007 -6.242e-41 0.20890145 -0.531119 0.7095475 0.781044 0.10204497
0.7616777 -5.4747e-41 -5.5412e-41 -0.07605005 0.12378688 -0.5363094 -0.6383168 0.44312277
0.2386153 0.94172853 -5.4331e-41 0.32227868 -0.4123005 0.44844896 -0.0325257 0.6608278

gen.gen.SAM1.conv_in.weight f4 [32, 32, 3, 3]
00000000: ddf1 1e3c d26e d8bb a528 56bc c542 8cba
00000010: f982 bb3b 380e 47bc abd1 843b 04e6 c23c
00000020: 2774 0ebc 6e6d 7cbc 6dde 47bc d73d 0a3c
00000030: d969 21bd d784 543d 2060 ecbb 41e0 a93c
00000040: a63b a2bc 7c59 70bc 2290 f1bc d0c1 533d
00000050: 8f3a 19bc 30bf a73c dd15 59bc b475 a23b
00000060: 332c f53b 04e8 a7bc 8178 6d3c dd9b f8ba
00000070: eca5 79ba 215d 713c 5c96 d9bb 60bd 76bc
00000080: bedc f3bc 22dd b83c de35 4f3b 694c 5cbc
00000090: 1345 703c 099c a43b 1d12 293c 648c d1bc
000000a0: fda0 583c 9353 db3c 7a1a 18bc 9b16 8cbb
000000b0: bac7 943c 9515 ed3c 16e7 003d dd5b 43bc
000000c0: 975c ff3c a75f 963c 7558 4b3c 105c 5038
000000d0: 8656 a33b 8d6a c439 e7c4 123d 9b09 89bb
000000e0: e0bf 1ebc 913b 03bc 1974 8fbc ebcb a93b
000000f0: d130 003b af79 93bc f9c7 2c3b d5da c83c
00000100: b2eb 29bc 3c50 aa3c 475e 5bbc 4cf2 64bc
00000110: 0e86 133c 028b 5b39 2bc7 08bd 2f41 3e3d
00000120: c591 17bc 1028 0bbc 0740 073d 49ad 8a3c
00000130: 6364 87bc fca0 443c 0f78 83bc c3ea e83c
00000140: 1286 12bc 1729 9dbc fb9b b23b 5b79 0d3c
00000150: 0591 4f3c 6b24 d53b eade 64bc 3356 96bb
00000160: f1e1 213b 0715 24bc b2e8 5c3c 8279 09bc
00000170: 7287 423d 9ac1 043c bd30 083c 20de b73c
00000180: 3884 c13b 279d 1bbc 0f2d c43c 49b5 983c
00000190: c433 223b e0ed e03c e6ad d2ba 8d03 323a
000001a0: 9b0d 783c aaca c1bb c768 18bd 4d81 2e3d
000001b0: cadb 2abc 3204 d0bc 5908 ffba b401 cd3b
000001c0: 183c bf3c 8204 acba 6621 10bc 010b c4bc
000001d0: ef1a 88bc c2a3 453b 3940 32bb c078 25bb
000001e0: 4093 393c 3c45 68bc 147c 3d3c 4ab3 92ba
000001f0: 7dd8 c23c d0bb fabc a630 363c 1448 893c
00000200: dda6 38bc 5309 e8bc f331 ba3c 23b9 763c
00000210: 46b9 c23c 0e68 793c ee13 2bbd e0fa 123d
00000220: 8053 92bc 195c a53c 3b29 ccbc 57f5 8d3a
00000230: a536 ca3c 5b19 f6bc 354b 1cbc dc83 99bb
00000240: b59f e539 97d2 323c c7a6 e33b 9e63 a93c
00000250: 251e e83c 4ba0 8fbb 92e6 97bc 38a7 0a3c
00000260: f05c 00bc b0a0 42bc 5c34 343c ee74 a23c
00000270: c011 58bc 4ae9 35bc 46f4 1cbc 0d17 143c
00000280: 00ce eabc 26be 82bc ecb5 dfbc bcb8 6a3c
00000290: b89d a03c 4ff9 643a a213 723c 2044 bdbb
000002a0: f25d 42bc 8b4c 953c 6041 de3b 6f43 e93a
000002b0: f76e 18bb 568d 293d c5f8 26bb 6496 1dbc
000002c0: e4ed 4a3c 7173 913b 6f51 7ebb 7de9 babc
000002d0: 5e19 073d e612 1bbc 9e95 19bd e6d2 ca3b
000002e0: 728c 1f3c 81c8 21bc d2ef cdbc 54ac 90bc
000002f0: 0594 2cbc 33de 9d3c f38a 2b39 a735 bf3c
00000300: ddbf 84bd 794c 84bc eaf4 443c 49d4 02bd
00000310: 3ba1 a93c c958 073d 1cd6 193c 6b6e d9bc
00000320: 3364 743a 1353 573c 184f 7cbc 5cfb 653c
00000330: 174a 433b af0e 663d 426a a63b 6bd8 653c
00000340: c748 81bc 9b79 a13c 587b dabc febd 1b3a
00000350: 4bb4 d83a c619 213d dbc0 4b3c 30a9 8dbb
00000360: 8ae9 26bd 407c a53b fc1e 303d 67e7 a8ba
00000370: 21a8 403d 0c8a d4bc 06cd 84bc 5f2f 9fbb
00000380: 8b69 8e3c f78f d53b 87fa 243b da1c 8ebb
00000390: 2699 163b bba9 96bc a40b 893b c5f9 383d
000003a0: 1989 f9bc 5006 9d3b 3c4e d4bc 4396 7d3b
000003b0: ca77 10bd e9f5 783c f0b8 febc e6bb 3dbc
000003c0: 05d9 c13b b31b f3ba c70a afbc 8592 32bb
000003d0: 490e 86bc a60e 83bb 3ebb 51bc bcce 6f3b
000003e0: 1525 3dbc 7de4 94bc 4049 673b 2aff 95bc
000003f0: 7944 db3c 0bfc 493c a5e9 23bb 704b 66bb
0.009701219 -0.0066050077 -0.013071214 -0.0010701051 0.0057224003 -0.012149386 0.0040533147 0.02379132
-0.008694685 -0.015406949 -0.0121990265 0.008437595 -0.039407585 0.0518845 -0.0072136074 0.020736815
-0.019803833 -0.014669772 -0.029487673 0.051698506 -0.00935234 0.020476907 -0.0132498415 0.004957879
0.0074820756 -0.020496376 0.014494062 -0.0018967349 -0.00095233205 0.014731676 -0.0066402387 -0.015059799
-0.029768344 0.022566382 0.00316178 -0.013445952 0.014664906 0.0050234837 0.01031926 -0.025579639
0.013221976 0.02677325 -0.009283656 -0.0042751557 0.018161643 0.028940955 0.03147038 -0.011923757
0.03117208 0.018356157 0.0124112265 4.9676804e-05 0.0049846796 0.0003746342 0.035832312 -0.0041820533
-0.009689301 -0.008009807 -0.017511414 0.0051817796 0.0019560347 -0.01800236 0.002636431 0.02451841
-0.010371136 0.020790212 -0.013389177 -0.013973784 0.009004129 0.00020937252 -0.033393066 0.046448883
-0.009251063 -0.008493438 0.033020046 0.016928332 -0.01652736 0.012001272 -0.01604846 0.028432256
-0.008943098 -0.019184632 0.005450723 0.00863489 0.012668853 0.0065045855 -0.0139691625 -0.0045879125
0.0024701322 -0.010014779 0.013483213 -0.008390786 0.047492452 0.008102799 0.008312401 0.022444785
0.0059056543 -0.009497917 0.023947267 0.018641131 0.0024750093 0.027457178 -0.0016073554 0.000679069
0.015139963 -0.005914052 -0.0372093 0.04260378 -0.010428378 -0.025392625 -0.0019457444 0.0062563065
0.023344085 -0.0013123902 -0.008797025 -0.023931028 -0.016614405 0.0030157422 -0.0027198924 -0.0025248975
0.011326611 -0.014176663 0.011565227 -0.0011192348 0.02378487 -0.030607134 0.011119997 0.016758002
-0.011270252 -0.028324759 0.022728896 0.0150587885 0.023769986 0.0152225625 -0.041767053 0.035883784
-0.017862082 0.020185517 -0.024922004 0.0010830563 0.02468426 -0.030041387 -0.009539415 -0.0046849083
0.00043797275 0.010914466 0.0069473716 0.020677384 0.028334687 -0.004383122 -0.018542562 0.00846272
-0.007834658 -0.011879131 0.010998812 0.019831147 -0.013187826 -0.011102984 -0.009579724 0.009038699
-0.028662682 -0.01595981 -0.027308427 0.014326271 0.019606456 0.00087346596 0.014775189 -0.0057759434
-0.011863219 0.018224975 0.0067826957 0.0017796586 -0.00232595 0.041394554 -0.0025477868 -0.009618375
0.012385819 0.0044388105 -0.0038805862 -0.022816414 0.032983176 -0.009464955 -0.0374962 0.006189692
0.009738075 -0.009874464 -0.02513877 -0.017660297 -0.0105333375 0.019270992 0.00016359593 0.023341013
-0.064819075 -0.016149746 0.012021283 -0.031940732 0.020706763 0.033043656 0.009389427 -0.02654191
0.0009322792 0.013142365 -0.015399717 0.0140369795 0.00297988 0.056166347 0.005078585 0.014028649
-0.015781773 0.019711306 -0.026670143 0.0005941092 0.0016533224 0.03933122 0.012436117 -0.0043231472
-0.040750064 0.005050212 0.0429983 -0.0012886346 0.04703534 -0.025944732 -0.016211044 -0.004857942
0.017384311 0.006517406 0.002517374 -0.0043369355 0.0022979467 -0.01839148 0.004182296 0.045160074
-0.030460881 0.0047920123 -0.025916211 0.00386943 -0.03527049 0.015195348 -0.031094044 -0.011580443
0.0059157633 -0.0018547684 -0.021367444 -0.0027247977 -0.016364234 -0.003999549 -0.01280099 0.003659173
-0.011544486 -0.018175358 0.0035291463 -0.018310148 0.026766049 0.012328158 -0.002501109 -0.003514018

gen.gen.SAM1.conv1.weight f4 [32, 32, 1, 1]
00000000: 5c64 5d3c 0b16 f43c 8d12 fbbc 859e d93c
00000010: e297 8b3d 8a0b 143e 5703 8e3d 531e 8b3d
00000020: 8339 0d3d 53eb ccbc cd28 7b3c 900f da3c
00000030: fc76 383c 3bd3 e539 76d9 4f39 6658 a03c
00000040: b883 80bc 72a0 b13d 3002 41bc c5cc 29bb
00000050: 04ec 5dbd 6bd8 3abb ccc5 c9bb f9e7 b8b8
00000060: 9e2e 40bd 88ac c03c bee4 aabc f05b 2cbc
00000070: 2cdf 3a3b 6b68 5dbc 6f72 0ab9 3be9 2dbc
00000080: 8720 ea3d 4daf 6f3d 4c53 503c 8bfe ce3d
00000090: 060f e93d d258 fc3d 96d6 c63d e1dc 423d
000000a0: 4a42 003d c9a9 78bc 1bb9 d53b c5a1 ee3c
000000b0: 25f7 5e3d 15c4 793d 3d45 693c 4f20 a93c
000000c0: c6ec cdbc 67d5 533d 9e47 ba3d 2660 973b
000000d0: 6454 adbb 25b8 3c3b f7e7 f0bc 133a a63c
000000e0: bf74 9abb ca0f 873b 4be9 c93d e6b0 3ebd
000000f0: 14fa 453b 46e0 d03c 34d0 8f3c e299 453c
00000100: 2ada 07be e087 debd b17d e8bd b98b 67bd
00000110: 182b 0bbe 6378 88be 07fb 29be aa37 7bbe
00000120: 3267 11be bac0 e8bd 6527 78be 8842 09be
00000130: 67c6 07be 403a 87bd f6c3 3abe 14a9 1abe
00000140: dfc7 80bd 4537 ffbd 92ec ecbd f450 eabd
00000150: dd48 16bd c9a9 bcbd 52fa 97bd fd18 a9bd
00000160: 5c48 d3bd 3a4c dfbd 25aa fbbd 73fe a5bd
00000170: c30e f3bd 7203 50be 119f 39bd 0b9a cabd
00000180: 4fe4 fdbd 85b2 dcbc 937f 0fbc 8574 61be
00000190: 6cec dabd 2de6 0cbd f92a abbe fe65 7abc
000001a0: 4969 8dbd 6ab2 6ebc 8b63 64be 8f80 4fbe
000001b0: 3410 9bbe 72bc 96bd 2f77 94be 8bed 54be
000001c0: 9991 33be 93f5 c7be f551 0b3d 9dab 11bf
000001d0: 4ce5 d2bd fc88 9fbe dfd9 53bd 1e11 0ebd
000001e0: 1588 9abe 0324 65be 32eb 763d ee9d 05be
000001f0: d11d 9dbd 6581 b3bc 3b60 80bd 9eb7 7cbd
00000200: 1c2b c1bd ddac bbbd 2546 b3bd 2c87 90bd
00000210: 95d4 b6bd 0d18 89be a758 39be 5f5d 7ebe
00000220: 8650 2cbe 8227 01be ccc6 60be 021f 8abd
00000230: 3be2 d9bd f462 03be 29f5 0bbe e11d e1bd
00000240: 8253 1fbd 80ec 19be f9df d6bd 2252 dabd
00000250: c779 31bb 18cc 8cbd 63fb 3dbd f82a 96bd
00000260: 651b 01be 188f b4bd 3eea 03be 6b54 42bd
00000270: b817 a3bd 8899 88be 64c7 92bd c5fd 4bbd
00000280: 81f9 aa3d 2c27 183e 2a18 a13d 28bd 913d
00000290: 9ad3 c83d f50a 1f3e 524d 113e 5ac0 583e
000002a0: 8f7e 3d3e 6ac8 a33d 1c78 1c3e 5922 7d3d
000002b0: 18a8 db3d 0a67 bc3d 9984 823d 74d4 cd3d
000002c0: 5571 863d e3bf b13d 9e49 c03d 324d 083e
000002d0: 20e7 6d3c 2560 c13d 1cf8 813d 0932 933d
000002e0: ac0e a83d 82ef 3f3d a9de c93d 0468 853d
000002f0: 46b3 993d f51e 2f3e c022 233d e1d2 a33d
00000300: 6814 98bd 0919 9bbd 9716 92bd adf4 42bd
00000310: d3a1 a3bd f253 9abd fbad 30be 4ba7 86bd
00000320: b30d 98bd 9e75 bbbd 4eee b9bd e46f b1bd
00000330: 5306 98bd 09ed 41bd 25b0 6abd 42b2 8cbd
00000340: 8da6 3cbc 5d23 a4bd e389 d1bd 1cdb 72bd
00000350: 3f39 f93c eb5d 4dbd a2f8 87bd e893 c1bd
00000360: 6b03 09bd 2877 8ebd e5e6 94bd be87 11bc
00000370: df63 eabc ea8a f2bd e471 53bd b7af 94bc
00000380: cd20 aabd e9a4 9dbd 5d39 96bd e0b1 e2bc
00000390: 3f7a 84bd 6a22 9ebe f801 07be 3a4a 78be
000003a0: 5b62 b2bd 6619 cfbd fe1e 74be d84c bfbd
000003b0: 1e0d 8fbd 6c4a 71bd 11c0 dfbd 8e80 dabd
000003c0: 6d0b 183c 0496 1cbe 4319 4ebd dff5 dbbd
000003d0: afeb 853b 925d 6bbd d2d5 9fbd a1e5 9fbd
000003e0: 8dcc 1fbd cf6b 99bd da76 f3bd 781c 0cbd
000003f0: 690a ccbc 2bde 94be 576e 69bd 9138 e9bc
0.013512697 0.029795667 -0.030648494 0.026564846 0.06816079 0.14457527 0.06934231 0.06792893
0.034478676 -0.025014555 0.015329552 0.026618749 0.011258837 0.00043835663 0.00019822069 0.019573402
-0.015687808 0.08673181 -0.011780307 -0.0025909406 -0.05418016 -0.0028510343 -0.0061576124 -8.817012e-05
-0.046919458 0.02351977 -0.020861026 -0.0105199665 0.0028514368 -0.013513665 -0.00013203335 -0.0106146885
0.11431985 0.05851679 0.012715172 0.10107144 0.113798186 0.12321629 0.09708898 0.047573928
0.03131322 -0.015177199 0.0065223104 0.029129872 0.054434914 0.060978014 0.014237699 0.020645289
-0.025137316 0.05171719 0.09095691 0.004619616 -0.005289601 0.0028796282 -0.029407484 0.020291364
-0.0047136243 0.0041217552 0.0985895 -0.046555422 0.0030208873 0.025497567 0.017555334 0.012060614
-0.13266817 -0.1086576 -0.11352099 -0.056529734 -0.13590658 -0.26654348 -0.16599666 -0.24532953
-0.14199522 -0.11364885 -0.24233778 -0.13404286 -0.13259278 -0.06602907 -0.18238816 -0.1510356
-0.062881224 -0.12461714 -0.1156856 -0.11441222 -0.03669058 -0.092120714 -0.07420792 -0.08256719
-0.10316536 -0.10903211 -0.12288312 -0.08105173 -0.1186805 -0.20313814 -0.045317713 -0.098926626
-0.12397062 -0.026940593 -0.008758443 -0.22017105 -0.10689625 -0.0343992 -0.33431223 -0.015283106
-0.06904847 -0.014568904 -0.22303598 -0.20263885 -0.302858 -0.07360162 -0.2899718 -0.2079374
-0.1753601 -0.39054546 0.034013707 -0.56902486 -0.10297641 -0.31159198 -0.05172145 -0.034684293
-0.30181947 -0.22377019 0.060282893 -0.13048527 -0.07671703 -0.021912286 -0.062683545 -0.06169855
-0.094320506 -0.091638304 -0.087536134 -0.07057032 -0.089272656 -0.26776162 -0.18100224 -0.24840306
-0.16827592 -0.12612727 -0.21950835 -0.067441955 -0.10638853 -0.12830716 -0.1366774 -0.10992027
-0.038898 -0.15031624 -0.10491938 -0.10660197 -0.0027080642 -0.06874865 -0.04638232 -0.073324144
-0.12608106 -0.088163555 -0.12882325 -0.04744379 -0.07963508 -0.26679635 -0.07166937 -0.04980256
0.0834837 0.14858693 0.07865937 0.07116157 0.09805985 0.15531524 0.14189652 0.21167126
0.1850531 0.0799721 0.15280193 0.061800335 0.10725421 0.09199341 0.06372947 0.10050288
0.06564585 0.086791776 0.09389041 0.13310698 0.0145204365 0.09442166 0.06346151 0.07187278
0.082059234 0.04685927 0.09856922 0.0651398 0.07504897 0.17101653 0.039828062 0.07999206
-0.07425767 -0.075731345 -0.07133215 -0.047596622 -0.0798985 -0.075355425 -0.17253868 -0.06574877
-0.07424488 -0.09153293 -0.09078656 -0.086639196 -0.07423081 -0.047345195 -0.05729689 -0.068699375
-0.011514318 -0.080145575 -0.10231378 -0.05929099 0.030422805 -0.050138395 -0.0663922 -0.09452039
-0.033450525 -0.06956321 -0.07270602 -0.008882461 -0.028612075 -0.11842902 -0.051622286 -0.018150194
-0.083070375 -0.0769747 -0.0733516 -0.027672708 -0.06468629 -0.3088563 -0.13184345 -0.24247065
-0.08710166 -0.10112266 -0.23839948 -0.09340829 -0.06984924 -0.058908865 -0.10925306 -0.10669051
0.009280068 -0.15291601 -0.05031706 -0.107402556 0.0040869336 -0.057462282 -0.07804455 -0.0780747
-0.039013434 -0.07491266 -0.118879035 -0.034206837 -0.024907308 -0.2907575 -0.056989994 -0.028469356

gen.gen.SAM1.conv1.bias f4 [32]
00000000: 3cec 6c3e 0ed9 7d3d e852 1c3e 9167 8ebe
00000010: 70cc 4b3e 5574 cc3d 3003 f73c dea7 9a3c
00000020: 4768 4f3e 6381 f13d 02c0 c1bd 6ce4 3a3e
00000030: 6576 b8bd 50ca bb3d 8d7b 17bd 19d4 e7bd
00000040: 27a3 2c3e 72f5 3d3e 92bf 5a3e 008b 0fbd
00000050: aae6 2fbc 831e cf3b fcee 033e d948 443e
00000060: 145d 753e 697d 203d fd81 663d 59bf 813c
00000070: 0cff f03d e71f be3d 18a3 a1be a9f3 6f3e
0.23136991 0.061974578 0.15266001 -0.2781339 0.19902205 0.09983126 0.030152887 0.018878873
0.20254622 0.11792257 -0.09460451 0.18251199 -0.09006957 0.091694474 -0.03698306 -0.11319751
0.16859113 0.18550661 0.21362141 -0.03504467 -0.010736147 0.006320776 0.12884134 0.19168414
0.23961288 0.0391821 0.05627631 0.015838312 0.11767396 0.09283429 -0.31569743 0.23432793

gen.gen.SAM1.conv2.weight f4 [32, 128, 1, 1]
00000000: 3a46 dcbe 77cd 9ebd 3548 dfbb 9d57 563e
00000010: b086 a63d 5359 34be 46a5 2a3d e7f0 173e
00000020: 1e68 89bc 260a 08be bfb9 cd3d d096 79be
00000030: 1a63 af3d 379b 4dbe 0a94 4ebe 0c97 b73d
00000040: 2c2c 22bd 7f27 273d 4ba3 953d 2f44 a53d
00000050: 2f1c 993d d75b a13d fcf0 7a3c 3700 cabc
00000060: 11f2 51be 2b7c aa3a 17bb 34be bd7d b23d
00000070: 260e bebc 6c0f 863d 4bc4 4d3e ee66 173e
00000080: 9f77 943c 6fea 31be d60f f33d 3a73 f23d
00000090: 3774 e8bd 436b 2ebe 7f99 273e d71f bebc
000000a0: 6be6 7b3c 9fb6 5b3e a8cb e3bb eba3 313d
000000b0: 2b1b 93bc c6e6 cf3c b909 53be 8cfe ad3d
000000c0: e39d e9bd 9881 85be d2b7 6ebe d006 bc3d
000000d0: ada4 d33d 29c2 40bd f22c da3d 318f 53be
000000e0: c237 68be 842a 96bd 09f6 4dbe bfba a43d
000000f0: e20b 4a3d 49d5 883d c581 f13d 4cb5 c43d
00000100: 020c ccbe aa49 61be 1645 ed3d cd42 d4bc
00000110: 9696 10be c7c3 053c 3fba d6bd 7fe1 03be
00000120: 1cd1 58be 9908 9b3c 7698 82bd 4ad0 0b3e
00000130: cf99 c73d f7f8 cf3d a219 4bbd 07a4 63bd
00000140: 7845 603d b284 4a3d 2e5e 323e 0ac7 54be
00000150: f6ff dd3d 02b3 b53c d1a7 debd 20fb af3d
00000160: c342 923d 3f2f c8bd e91d d5bd 419d b33d
00000170: 4bac d43d 1a34 9d3d 428e 27bd f1bb 903d
00000180: ee7a df3d 3f86 1a3d c2fd 0c3e 2bac 3c3e
00000190: 9f75 483e bab1 7f3c 72ee 45bd f018 c3bc
000001a0: ded0 50be 88b0 db3c 9311 6b3d 8e8a 183e
000001b0: 38e6 3b3a 9d81 43be a901 8ebc 7819 b63c
000001c0: 1681 c93b c90a 843d 1870 1f3d d86a f93c
000001d0: d13d b73b 93b7 003e 6bff 37be 4f44 6a3d
000001e0: d0f6 8f3d 2ab3 953d f71b 1bbe fe57 b53d
000001f0: ff5c 813d 5e4e 0f3e 01e7 323e 6474 ec3c
00000200: 1d17 e0be f870 dfbd 7968 17be 4486 023e
00000210: e130 ee3d a28d 28be 083f 663d c63a 333e
00000220: 879a a2bc a9a5 6cbe d9e1 333d d718 6fbe
00000230: 5df4 213d 67f0 43be 8063 3bbe 4328 323d
00000240: 996f 1fbe dadb 573d a607 d43d 8692 e7bb
00000250: 9794 f33c 1124 a23d 31b9 623d 7fa6 11be
00000260: b6d8 32be 5d7a d8bd b353 1abe 2f8a c53d
00000270: e9c4 eebd e748 643d 6bac f63d 48d3 843e
00000280: f96c 843d fdf5 2ebe e15e 563b c576 643e
00000290: 7525 09be 5f90 16be 9e41 6e3e 0166 8f3c
000002a0: b08b 8bbc 5c0f 833e 328e e73d d1f2 933d
000002b0: f6c7 ce3d 8e90 813d 2bf7 42be f848 393e
000002c0: 2b1a 0dbe b5dc d7bd bd06 9dbe 8f43 273e
000002d0: f848 343e bf97 eabd 5be0 d13d 97c2 6ebe
000002e0: 9665 56be 7bc8 74bd 8f27 5bbe 88c5 3c3e
000002f0: b8e0 af3d a53a e43d 41a7 643e 2e0e 633e
00000300: d93f dabe b8ee 51be e169 1e3e f852 093b
00000310: dc51 38be b711 1a3d 4e9a 40be 8529 1dbe
00000320: f7f9 3cbe e467 813d 94ff e3bc 73b8 1d3e
00000330: 1df4 0c3e 63bf 0d3e ebdb 42bb 302e a4bc
00000340: efc6 cb3d 96cb 183e 5ebd 723e 8fcc 91be
00000350: 5b62 533e b3b1 b43d 3ab2 4bbe 6479 e43d
00000360: 8f11 693d ce99 08be d812 adbd 3e24 8c3d
00000370: ac7b 473e 62f6 a1ba 19ab 1bbc dfe8 1d3d
00000380: 9c3b e83d 91e8 9e3d 4b55 353e 0f3a 8aba
00000390: 25ab 853e 0c81 2a3d 6a5c 24be 28ac 2fbe
000003a0: fb93 48be 0ee5 3f3d 2833 c53d 6791 3f3e
000003b0: cdc8 2bbe 2213 3cbe a385 343c 31c2 18be
000003c0: 55bf 9c3d 9c92 1a3e d9ac 913d e393 2e3e
000003d0: 3734 19be bedc 613e ad94 8ebe d0f2 f63d
000003e0: 32d1 fd3d 9d75 fa3d d54e 26be c651 9bbd
000003f0: 09e7 a63d 420d 623e 7d7b 0bbc 0610 823d
-0.4302233 -0.07754033 -0.0068140277 0.2093186 0.08131158 -0.176122 0.041661523 0.1483799
-0.01677328 -0.13285121 0.10045194 -0.24373937 0.08563824 -0.20078741 -0.2017366 0.08964357
-0.039592907 0.04080915 0.07306536 0.080696456 0.07476079 0.07878845 0.015316244 -0.024658306
-0.20502497 0.0013006976 -0.17649494 0.08715389 -0.023200106 0.0654591 0.20094411 0.14785358
0.018123446 -0.17374586 0.11868255 0.11838384 -0.11350291 -0.17033105 0.16367148 -0.023208542
0.01537476 0.21456383 -0.006951768 0.043369215 -0.01795729 0.025378596 -0.20609178 0.084958166
-0.114070676 -0.26075435 -0.2331231 0.09180987 0.10334144 -0.047060166 0.10653104 -0.20660092
-0.2267752 -0.07332328 -0.20113386 0.080434315 0.04932774 0.06681306 0.1179233 0.09604892
-0.3985291 -0.22000757 0.11585443 -0.02591076 -0.14119944 0.008164353 -0.104847424 -0.12878989
-0.21173519 0.018924998 -0.06376736 0.13653675 0.097461335 0.10154908 -0.049584992 -0.05557635
0.05475375 0.049442954 0.17418739 -0.20779052 0.10839836 0.022180084 -0.10871852 0.0859282
0.0714164 -0.097746365 -0.104060955 0.08770228 0.10384425 0.07675953 -0.040907152 0.07067097
0.10912119 0.037725683 0.13768676 0.18425052 0.19576119 0.015606338 -0.048323102 -0.023815602
-0.20392177 0.026817575 0.057389807 0.14896604 0.0007167789 -0.19092412 -0.017334776 0.022228941
0.0061494214 0.064473696 0.03892526 0.030446455 0.005592086 0.12570028 -0.17968528 0.05719405
0.070294976 0.073095635 -0.15147386 0.08854674 0.06316566 0.13994738 0.17470933 0.028864093
-0.43767634 -0.10910219 -0.14785947 0.12746531 0.11630417 -0.16460279 0.056212455 0.17502889
-0.019849075 -0.2311007 0.043916557 -0.2334932 0.039539684 -0.19134675 -0.18299675 0.043495428
-0.15569915 0.0526999 0.10353021 -0.0070670275 0.02973394 0.07917035 0.055352394 -0.1422367
-0.17465481 -0.10570214 -0.15070991 0.09645497 -0.116586514 0.055733588 0.12044605 0.25942445
0.064660974 -0.17086025 0.003271036 0.22310932 -0.13393195 -0.1470351 0.23267218 0.017504694
-0.017034382 0.25597656 0.113064185 0.07224048 0.10096733 0.063264 -0.190396 0.18094242
-0.13779514 -0.105401434 -0.30669203 0.16334365 0.1760596 -0.114547245 0.102478705 -0.23316418
-0.2093719 -0.059761506 -0.21401809 0.18434727 0.085877836 0.11143998 0.22329427 0.22173378
-0.42626837 -0.2050122 0.15470077 0.0020953994 -0.17999977 0.03761455 -0.18808863 -0.1534787
-0.18454729 0.06318644 -0.02783183 0.15402393 0.13764997 0.1384254 -0.0029733132 -0.020041555
0.09950053 0.14921412 0.2370505 -0.28476378 0.20642988 0.08822956 -0.19892207 0.11155966
0.05690151 -0.13339922 -0.0845086 0.0684285 0.19480771 -0.0012356753 -0.009501242 0.03855216
0.113394946 0.07759202 0.17708318 -0.0010545867 0.26107135 0.041626975 -0.16050878 -0.17155516
-0.195877 0.046849303 0.09628898 0.1870781 -0.16775818 -0.18366674 0.01101819 -0.14917828
0.07653681 0.1509499 0.07113046 0.17048602 -0.14961325 0.22056863 -0.27847806 0.120580316
0.123934165 0.12229464 -0.1624101 -0.075839564 0.08149535 0.2207537 -0.008513329 0.063507125

gen.gen.SAM1.conv2.bias f4 [32]
00000000: d1bc 49bc d1b8 043e f94b 8f3d 90b3 c13c
00000010: 8d20 583d dfcf 80bd 4c5d 473c e427 20bd
00000020: df0f e43d 403a f13d 6dc4 c8be a6df e13d
00000030: 11e5 123c ad38 d4bb d986 77bd 377e 093d
00000040: cf0d 633b 4288 bfbe 2cfd abbe cd72 9a3d
00000050: ee93 f33c ca0a 033e 7130 2b3d efbf 0339
00000060: 9b28 de3d 9541 853d c4e7 c6be c087 22bc
00000070: e85c ab3d f3ad aa3d a578 ca3d c6a2 7c3d
-0.012313084 0.12961127 0.069969125 0.023645192 0.052765418 -0.06289648 0.01216824 -0.039100543
0.1113584 0.117786884 -0.3921236 0.11028986 0.0089657465 -0.006476483 -0.060431335 0.033567633
0.0034645682 -0.37408644 -0.33591592 0.07541428 0.029733624 0.12797084 0.041794244 0.00012564634
0.10847589 0.065066494 -0.38848698 -0.009920061 0.0836733 0.083339594 0.09886292 0.06167867

gen.gen.SAM1.conv3.weight f4 [32, 128, 1, 1]
00000000: b3fb 323e d705 653e e2f0 3b3e 008e 203e
00000010: 434c 4d3e e508 c13d 6ef3 5b3e d56e 813d
00000020: 655a 6e3d 8034 243e 046a 96be b35b 113e
00000030: 082b 863d cdf0 153e a5d4 1c3d a821 323e
00000040: 9ea7 063e 5c32 96be 353a 96be a3f3 143e
00000050: eede 113e db67 6f3d 609f 3d3e a320 e73d
00000060: 6f1c 513e 1367 ad3d 9d35 96be 6bda 993d
00000070: 30e4 bc3d 2904 053e 5260 0e3e 9490 f3bc
00000080: c4fd ee3d 1d02 cf3d 0cef b43d fba4 023d
00000090: 33b5 163e 7138 d83d 1ea0 173e 1fc3 2d3e
000000a0: 9a5e 7d3d cc61 143e 3e8d 0e3e 05dd e13d
000000b0: 90a6 113d 8eba 1a3e ee56 de3c 5541 c53d
000000c0: 5362 19ba f41e 103e f208 0f3e b66a ce3d
000000d0: 40a8 4d3d 4597 793d adcd 083e 8044 b03d
000000e0: bd1e 173e 1f70 293e 6b50 103e 9c38 9e3d
000000f0: a780 263e 4687 0a3e 16e5 e93d f8e4 243e
00000100: 247d ce3d 6fd4 5c3e 9431 f53d 78af d73d
00000110: 8b5f 973d 1739 cc3c f0f1 ba3d b67b b63d
00000120: 78ae 293e 5b1f 053e fa00 42bd a7a0 213e
00000130: c43b 413d 24ea b93d b81d fb3d cf4c 383e
00000140: 309e ae3d 9811 3ebd a9b8 40bd cc99 bd3d
00000150: 09ed 3d3c 09a4 823e 23ce f23d b8b2 e63d
00000160: 924c ef3d 41f0 d33b 77e5 3ebd 456e 133e
00000170: 2998 323e 8fb2 b83d 5a90 0f3d 35c5 173e
00000180: da20 e63d 53a2 9c3d d84c 2b3e e116 003e
00000190: ecf7 303e ea93 2e3e 590b 903d 8650 be3d
000001a0: 86f0 663d a1f1 c73d 9360 763d 647a f63d
000001b0: 44d9 183d ecef ba3d 8e32 64bd ba39 cf3d
000001c0: ae64 de3c 9d8c 6b3d d548 723d b1be 1e3e
000001d0: fa62 1f3d 4919 483e 0f91 a13d 9667 273e
000001e0: 6780 993d b1a0 223e 384f 6e3d b87d ee3d
000001f0: 9ba3 e93d 9384 0f3e a84a 023e c1a1 073d
00000200: 6dfc f8bc cb60 a5bc e257 003c f751 1a3d
00000210: fa19 14bb 4faa 4b3d 8b2f 53bc a5ae aa3d
00000220: 4d7e 8c3d 0bd2 f13c 2a79 f13d 0155 ac3d
00000230: 6611 a83b 5d33 c73d 8344 ea3d 7acf 2f3d
00000240: 84fe c93c adba e83d 1284 f03d 2a73 353c
00000250: 9529 f83c 78cd 313d dde0 203c 1c63 9e3d
00000260: e8f2 f43b 4698 f03c 20b9 e63d 7cc7 ce3d
00000270: 85d1 3c3e c62c 083e 5307 d73b 7d46 493e
00000280: d5bd 1f3d 4ab5 043d 1f96 133d a2b3 373e
00000290: 05c8 163d 94c5 8d3d 9dbc c43d 8733 1abd
000002a0: 1988 0c3e 222c f43c 6f2b 423e 253d 843d
000002b0: b166 dcbc 3e76 7f3d e5af 1c3e 39b7 ba3d
000002c0: 1b76 413e 6ac2 463e 9aea 573e cddc 763d
000002d0: edba 163e 49f2 cf3d a0b3 4d3c 37c7 2f3d
000002e0: aa39 b03d ebab d1bc 5403 463e 10c8 fb3d
000002f0: 60bb 17bc d723 42ba 44b2 533d d0d4 12bd
00000300: 605a 433e ee16 063e 2259 b83d 7768 8f3d
00000310: 27b5 793d 6754 8f3d f8e6 453d f6f4 eb3c
00000320: fb76 0e3e 484a 2b3e 903b 4b3d 60a4 e03c
00000330: d74d ccbc 43c7 ba3d bc24 1dbb 652b 913b
00000340: 2d19 8f3c 2986 3b3d b7c5 a93d 1e8a ae3d
00000350: 90c5 ee3d ed6c 6dbc e4fc 6f3e dc7a 913c
00000360: b506 8d3d dd3c b83c 3f6b 9c3d b75e 743c
00000370: c7a9 313d b082 8e3d ecc0 233e d9f4 d3bc
00000380: 2043 713d e4a3 8c3d ea73 a0bc 453b ac3d
00000390: 941b 9e3d e9a5 3abd 04c1 ef3c e9cb 7c3d
000003a0: c1b1 c03d 0873 c03c 5bca c7bd 95fd f83d
000003b0: cf1e d8bd 2b17 773d f5fe 0b3e 038a a03d
000003c0: 6844 143e 7215 c3bd 88bf a9bd 62ac 19bc
000003d0: a974 1f3e 3bbe f13a c535 393e 28ad 59bc
000003e0: 3980 9a3d 6a2d cf3d ffc6 c5bd 639c 713c
000003f0: 378c 8e3d 8d81 143e 017f f6bb 5321 2e3e
0.17478828 0.22365509 0.18353608 0.15679169 0.20048623 0.094255246 0.2147958 0.06319968
0.058191676 0.16035652 -0.29377759 0.14195137 0.06551176 0.1464264 0.03828873 0.17395651
0.13149878 -0.29335296 -0.29341283 0.14546065 0.14245197 0.058448654 0.18517828 0.11285522
0.20421003 0.084669255 -0.2933778 0.07512363 0.09223211 0.12989868 0.13903931 -0.029732026
0.11669496 0.10107825 0.08834657 0.03189562 0.1471756 0.1055764 0.14807174 0.16968964
0.061857797 0.14490432 0.13921067 0.11028484 0.035559237 0.15110227 0.02714106 0.09631602
-0.0005851138 0.14074308 0.13968256 0.10078947 0.050209284 0.060935277 0.13359709 0.08606815
0.1475782 0.16546677 0.14093177 0.07725641 0.16260014 0.13528165 0.11420648 0.1610297
0.100824624 0.21565412 0.11972347 0.10531515 0.0739127 0.024929566 0.09128177 0.08910315
0.16570461 0.13000242 -0.047364213 0.1578394 0.047176138 0.09077862 0.12261528 0.1799805
0.085262656 -0.046403497 -0.047051106 0.0925785 0.011592158 0.25515774 0.11855724 0.11264557
0.116845265 0.0064678495 -0.046605553 0.14397533 0.17440857 0.09018432 0.035049774 0.14821322
0.11236735 0.076481484 0.16728532 0.12508728 0.17282075 0.17048612 0.070334144 0.092927024
0.056381725 0.09762884 0.060150694 0.12035063 0.037316576 0.09127793 -0.055712275 0.10118432
0.027147617 0.057507146 0.05915149 0.1550243 0.03891275 0.19540896 0.07888996 0.16348109
0.07495194 0.15881611 0.058181018 0.11645073 0.114081584 0.14015417 0.12723792 0.033113245
-0.030393803 -0.020187756 0.007833453 0.037675824 -0.002259849 0.049722966 -0.012889753 0.08334092
0.068600275 0.029519102 0.11790688 0.08414651 0.005129027 0.09726594 0.11438849 0.042922474
0.024657495 0.113637306 0.117439404 0.0110748205 0.030293265 0.04340884 0.009819237 0.07733747
0.0074752457 0.029369485 0.112657785 0.100966424 0.184393 0.1329833 0.0065621524 0.19655795
0.038999397 0.032399453 0.03603184 0.17939618 0.036811847 0.06922451 0.09606288 -0.037646797
0.13723792 0.0298062 0.18961881 0.06456975 -0.026904436 0.062368624 0.15301473 0.09116978
0.1889271 0.194101 0.21085587 0.060269166 0.14719744 0.10153634 0.012555033 0.042914595
0.086047485 -0.025594672 0.19337207 0.12294018 -0.009260982 -0.0007405853 0.05168368 -0.035847485
0.19077444 0.13094684 0.09001376 0.07002347 0.060963776 0.0699852 0.048315972 0.02880333
0.13912575 0.16727555 0.04961735 0.02742213 -0.02493946 0.091200374 -0.0023978194 0.004430222
0.01746806 0.045782242 0.08289664 0.085224375 0.11658776 -0.014491302 0.23436314 0.01775878
0.06886045 0.02248996 0.07637643 0.01491516 0.043374803 0.069585204 0.15991563 -0.025873588
0.058901906 0.06867197 -0.019586522 0.08409742 0.07720104 -0.04556838 0.029266842 0.0617179
0.09408904 0.023492351 -0.09755393 0.12157742 -0.10552751 0.06032483 0.13671477 0.07838824
0.1447922 -0.09525575 -0.08288485 -0.009379478 0.15571846 0.0018443534 0.18086918 -0.013285913
0.07543988 0.10116084 -0.09657096 0.014746758 0.069603376 0.14502545 -0.0075224643 0.170049

gen.gen.SAM1.conv3.bias f4 [32]
00000000: 4e82 cd3c 96ce 0d3d 1fee 133b 091a e8bd
00000010: b48f d3bb fe14 d1bd 3c3a 553d cf12 82bc
00000020: 766b 243e 9477 17bc f386 ec3d 4103 273d
00000030: 0aa5 0b3e 8af4 483d 7dfb e53d aa41 033e
00000040: f0df f23d 0dbb 303c d5fa c33d 7cef abba
00000050: 4e64 3b3d 26ad 9a3d d43e 0f3b dbf7 303e
00000060: 8624 d93d 6a84 95bc c6ac 45bd b9cc fc3d
00000070: 0a71 c33d af4f f3bd 3184 fcba 390c 3cbc
0.025086548 0.034620844 0.002257235 -0.11333091 -0.0064563397 -0.10209082 0.05205749 -0.01587811
0.16056618 -0.009244818 0.11549177 0.040774588 0.13637176 0.049061336 0.11229608 0.12818018
0.11859119 0.010786784 0.09569327 -0.0013117637 0.045749955 0.07552557 0.0021857517 0.1728205
0.106026694 -0.018251617 -0.048260473 0.12343735 0.09543045 -0.11880433 -0.001926547 -0.0114775235
